inference_model/Shoplifting/best_model.tflite (tflite, 212712 bytes, 13 tensors)

arith.constant11 f4 [2]
-0.025731137 0.025731014
00000000: 1bca d2bc d9c9 d23c

arith.constant12 f4 [2, 32]
-0.37283564 -0.4698737 -0.044827513 0.09295093 -0.09443081 0.3308034 -0.017303048 -0.12882026
-0.47759575 0.33343327 -0.32516596 0.34221268 -0.3043385 -0.47979182 0.32051545 -0.3390772
0.010276462 0.060336947 -0.20614405 -0.3658271 -0.36160734 -0.42063338 0.15086678 0.3329068
0.47048163 -0.2540114 -0.37532407 -0.35573277 -0.12790136 0.22175959 -0.25541866 -0.26243562
0.33602375 0.5178337 -0.40073755 -0.30253342 -0.40653673 0.15640688 -0.1386227 0.6092758
-0.14884739 -0.2279435 0.006783976 -0.13884763 -0.26790598 0.41580322 -0.34826845 -0.024571786
-0.4832421 -0.33402228 0.28666514 0.1073534 0.116952986 0.3212433 0.15954323 -0.052366156
-0.1601208 0.15111503 0.0752637 -0.017505158 -0.21190715 -0.28744 -0.48554957 0.2915439
00000000: 50e4 bebe 4993 f0be 0e9d 37bd 0f5d be3d
00000010: f164 c1bd 105f a93e 1fbf 8dbc 75e9 03be
00000020: 6e87 f4be c4b7 aa3e 277c a6be 8036 af3e
00000030: 42d2 9bbe 46a7 f5be 9a1a a43e 879b adbe
00000040: 9b5e 283c e023 773d 6d17 53be b14d bbbe
00000050: 9924 b9be 425d d7be d27c 1a3e c372 aa3e
00000060: f8e2 f03e c80d 82be 7a2a c0be 9b22 b6be
00000070: 93f8 02be f214 633e 3cc6 82be f65d 86be
00000080: 4e0b ac3e c090 043f 792d cdbe a9e5 9abe
00000090: 9525 d0be 2029 203e 1cf3 0dbe 80f9 1b3f
000000a0: 736b 18be 056a 69be 1e4c de3b 132e 0ebe
000000b0: f92a 89be 29e4 d43e 3e50 b2be c54a c9bc
000000c0: 826b f7be f804 abbe c6c5 923e 19dc db3d
000000d0: 0c85 ef3d 007a a43e 4d5f 233e e57d 56bd
000000e0: b5f6 23be e6bd 1a3e db23 9a3d fa66 8fbc
000000f0: 30fe 58be 562b 93be f499 f8be 3e45 953e

arith.constant54 f4 [16, 3, 3, 3]
0.13837701 -0.0947865 -0.28219685 -0.015980225 -0.27291843 0.10129094 0.17408499 -0.3539947
-0.36072624 0.25834128 0.07931471 0.09159822 0.08563255 -0.08418111 -0.21509543 0.0031026553
-0.10200989 -0.32088673 0.09342426 -0.10443634 0.0279057 0.42047438 -0.02672155 0.14804167
-0.0050841905 -0.14684546 -0.35216922 -0.21408863 -0.21444483 -0.10153836 -0.1259992 -0.15436922
-0.046181567 0.16696356 0.16514756 0.09689207 -0.18548088 -0.11690161 -0.40571335 -0.10153859
-0.15827318 -0.20883934 -0.12604204 -0.1305434 -0.04292595 0.33319503 0.44992253 0.1376693
0.19868605 0.2712575 0.25632307 -0.016085315 -0.13751887 -0.47423226 0.052142777 -0.3161098
-0.15141053 0.021824997 -0.22249405 -0.43536824 -0.17396745 0.18888976 0.07994693 0.13889709
-0.30542344 -0.29820356 -0.19534501 -0.45309907 -0.31595507 0.05087824 0.04097622 0.033339962
-0.12842171 -0.34423995 -0.46330595 -0.18170129 -0.14371395 0.03285156 -0.17885928 0.105592065
0.17427495 -0.0347983 -0.1723989 -0.016847447 -0.24823932 0.064220525 0.011750517 -0.29060915
-0.05701907 0.17247224 -0.24070728 -0.10315241 -0.36248857 0.41102186 0.31277138 0.011460245
-0.16740753 -0.23574904 -0.273653 0.044703178 0.30866155 0.17232992 -0.02950873 -0.11778757
-0.30886802 -0.055582833 -0.025521737 -0.0055336505 0.38181147 -0.04145073 0.082069725 -0.059023473
-0.10558213 0.054871157 -0.07492134 0.12400661 0.13949968 -0.08783096 -0.1829833 -0.22060859
-0.16393988 -0.22667299 0.07047717 0.06793077 0.016250476 -0.052344818 -0.2199547 -0.3120065
-0.4422865 0.30225405 0.090522364 0.30658862 0.11344695 0.17140087 0.14536059 0.31946224
0.01742656 0.15538311 -0.35074246 -0.1734914 -0.04599552 -0.4654113 -0.36516234 -0.13705963
-0.11120677 -0.26438728 0.007878008 0.14676258 0.09215127 0.058336023 -0.2202009 0.12688515
-0.04756326 -0.3590767 -0.28687 -0.3178726 0.3023056 0.10704307 0.245528 0.07648698
0.23357864 0.011485148 0.16971073 0.13239433 0.20159407 -0.032731928 -0.15868828 -0.27576986
-0.5370173 -0.30566904 -0.023664631 0.28560853 0.26438186 0.329142 0.07889481 0.0011988683
-0.123288624 0.08065551 -0.13363543 -0.08050197 -0.046701726 -0.2079606 0.14791173 -0.16822878
-0.34650776 -0.34850305 -0.113667905 0.1756973 0.12214273 -0.28921163 -0.22953738 -0.18586257
0.28590026 0.018114716 0.5513181 -0.21725892 -0.4075623 -0.29952654 -0.0791667 0.00962704
0.121565245 -0.061564907 -0.24709982 -0.06768469 -0.21260653 -0.15721421 -0.293249 0.1994152
-0.334854 -0.22220267 -0.0941609 -0.11700808 -0.19734341 0.11368059 -0.112984605 -0.09067051
-0.067261375 -0.12194741 -0.21747373 0.37069643 0.076096274 -0.17766269 0.17995624 -0.23087189
0.043312598 0.07753893 -0.16484152 -0.2420926 0.2354518 0.014102212 -0.06988837 0.2793279
-0.24520119 -0.25882772 0.26049912 -0.060225282 -0.27457568 0.10152627 -0.21859954 -0.23178224
0.31408435 -0.08576675 -0.13786443 -0.15747203 -0.025585275 -0.44720763 0.09725988 -0.23810406
-0.32650787 -0.08874095 0.042779148 -0.08668344 0.09951652 0.053593185 0.19055808 -0.037260864
00000000: b4b2 0d3e 6d1f c2bd 1b7c 90be f6e8 82bc
00000010: f7bb 8bbe a071 cf3d 5643 323e cb3e b5be
00000020: 1cb1 b8be 4f45 843e c06f a23d d997 bb3d
00000030: 1e60 af3d 2567 acbd fa41 5cbe eb55 4b3b
00000040: 90ea d0bd 444b a4be 3855 bf3d b8e2 d5bd
00000050: 7f9a e43c 6b48 d73e 27e7 dabc 3c98 173e
00000060: 4899 a6bb a85e 16be 864f b4be 0d3a 5bbe
00000070: 6d97 5bbe 58f3 cfbd ef05 01be f712 1ebe
00000080: e228 3dbd 7ff8 2a3e 711c 293e 596f c63d
00000090: b3ee 3dbe 1c6a efbd a9b9 cfbe 77f3 cfbd
000000a0: 5d12 22be fbd9 55be 2a11 01be 2bad 05be
000000b0: 1fd3 2fbd 8a98 aa3e 3f5c e63e 2ef9 0c3e
000000c0: 5b74 4b3e 43e2 8a3e c73c 833e 5ac5 83bc
000000d0: bfd1 0cbe 92ce f2be aa93 553d 25d9 a1be
000000e0: 5d0b 1bbe 56ca b23c 7bd5 63be 96e8 debe
000000f0: 8624 32be 516c 413e 37bb a33d 0a3b 0e3e
00000100: 7660 9cbe 23ae 98be 8608 48be 9afc e7be
00000110: ddc4 a1be b465 503d aed6 273d 7c8f 083d
00000120: fb80 03be 3840 b0be 7036 edbe e70f 3abe
00000130: c029 13be 5b8f 063d e326 37be a740 d83d
00000140: 2275 323e aa88 0ebd 5689 30be a803 8abc
00000150: 7332 7ebe 0d86 833d 3e85 403c b9ca 94be
00000160: d48c 69bd 909c 303e f87b 76be 9241 d3bd
00000170: 1a98 b9be 7571 d23e 9223 a03e c0c3 3b3c
00000180: e16c 2bbe 3268 71be 3f1c 8cbe ae1a 373d
00000190: e308 9e3e 4177 303e 4bbc f1bc 9c3a f1bd
000001a0: f323 9ebe d3aa 63bd f612 d1bc a053 b5bb
000001b0: cb7c c33e 3ec8 29bd 2c14 a83d 99c2 71bd
000001c0: 723b d8bd 94c0 603d 5c70 99bd 2df7 fd3d
000001d0: 01d9 0e3e b8e0 b3bd f95f 3bbe 38e7 61be
000001e0: dbdf 27be f71c 68be 5656 903d 4a1f 8b3d
000001f0: b81f 853c 8567 56bd ce3b 61be 51bf 9fbe
00000200: 6073 e2be 0bc1 9a3e ca63 b93d 2ff9 9c3e
00000210: e056 e83d b683 2f3e 68d9 143e 8e90 a33e
00000220: 25c2 8e3c c01c 1f3e 8494 b3be bba7 31be
00000230: cc65 3cbd 644a eebe 8ff6 babe 5c59 0cbe
00000240: 60c0 e3bd c55d 87be c312 013c ee48 163e
00000250: ceb9 bc3d c1f1 6e3d 587c 61be 2eee 013e
00000260: b1d1 42bd e7d8 b7be a0e0 92be 33c0 a2be
00000270: cdc7 9a3e 6639 db3d b16b 7b3e 35a5 9c3d
00000280: 3d2f 6f3e 342c 3c3c a6c8 2d3e 6192 073e
00000290: ad6e 4e3e ea11 06bd 2e7f 22be b531 8dbe
000002a0: f779 09bf a780 9cbe 54dc c1bc 483b 923e
000002b0: 0f5d 873e 4d85 a83e 9a93 a13d 5823 9d3a
000002c0: bf7e fcbd b72e a53d bad7 08be 38de a4bd
000002d0: 4f4a 3fbd a0f3 54be 2c76 173e 2a44 2cbe
000002e0: 7769 b1be fe6e b2be b8ca e8bd fee9 333e
000002f0: f825 fa3d 8c13 94be d90b 6bbe c252 3ebe
00000300: 8561 923e 5065 943c 2f23 0d3f 1f79 5ebe
00000310: 01ac d0be 8b5b 99be 2722 a2bd bbba 1d3c
00000320: 33f7 f83d 7c2b 7cbd bc07 7dbe 459e 8abd
00000330: 87b5 59be c3fc 20be bc24 96be 8033 4c3e
00000340: fc71 abbe 1989 63be 6ed7 c0bd efa1 efbd
00000350: 6414 4abe 5fd1 e83d 7964 e7bd 76b1 b9bd
00000360: 55c0 89bd 90bf f9bd 6fb1 5ebe eccb bd3e
00000370: 5dd8 9b3d 35ed 35be 7346 383e ae69 6cbe
00000380: 8d68 313d bbcc 9e3d 37cc 28be 1fe7 77be
00000390: 471a 713e f70c 673c a221 8fbd 1104 8f3e
000003a0: 0516 7bbe 1185 84be 2460 853e c9ae 76bd
000003b0: 2f95 8cbe 01ed cf3d 8fd8 5fbe 5358 6dbe
000003c0: aacf a03e 7aa6 afbd 552c 0dbe 5940 21be
000003d0: 3698 d1bc 66f8 e4be 3030 c73d 8dd1 73be
000003e0: 0a2c a7be d1bd b5bd 3039 2f3d 1687 b1bd
000003f0: 51cf cb3d 8784 5b3d a821 433e d99e 18bd

arith.constant175 f4 [64]
-0.18075189 -0.067243576 -0.26659653 -0.08448805 0.121489674 -0.35695806 0.12845309 -0.19724122
-0.066830136 -0.14805101 0.07254337 -0.10119635 -0.29736435 -0.0069617303 -0.18790317 0.094003804
-0.03694528 -0.111740775 -0.11435589 -0.28400013 0.12135582 -0.029211486 -0.012417569 -0.104775734
-0.36100984 -0.07177934 -0.066435516 -0.16553167 0.14347818 -0.28192288 -0.15216203 0.025377247
-0.07335291 -0.1761199 -0.041321944 0.073979795 0.02684723 -0.32151365 -0.07036971 -0.050009247
-0.083718516 0.01663703 -0.07644407 -0.19824739 -0.060836457 0.014124148 -0.00034304068 -0.17544362
-0.3957694 -0.08348025 -0.37768075 -0.068829656 0.0468446 -0.044736877 0.062015977 -0.015761487
-0.18129271 -0.19120283 -0.18227819 -0.13819635 0.055141732 -0.10534332 -0.05053539 -0.22986738
00000000: 0617 39be 00b7 89bd 577f 88be 1208 adbd
00000010: 94cf f83d 35c3 b6be 3589 033e 9af9 49be
00000020: 3dde 88bd af9a 17be 9e91 943d 0840 cfbd
00000030: 2440 98be 3a1f e4bb b069 40be 1185 c03d
00000040: ef53 17bd 59d8 e4bd 6c33 eabd 7768 91be
00000050: 6689 f83d ed4c efbc 0f73 4bbc a994 d6bd
00000060: 48d6 b8be 0c01 93bd 580f 88bd 2281 29be
00000070: f2eb 123e 3258 90be 5dd0 1bbe f2e3 cf3c
00000080: 0d3a 96bd c658 34be 3341 29bd b882 973d
00000090: b9ee db3c 709d a4be ff1d 90bd 7fd6 4cbd
000000a0: 9d74 abbd 614a 883c b58e 9cbd 5d01 4bbe
000000b0: a62f 79bd f868 673c 24da b3b9 7ea7 33be
000000c0: 49a2 cabe b1f7 aabd 5f5f c1be 90f6 8cbd
000000d0: 20e0 3f3d 043e 37bd 7704 7e3d 3c1e 81bc
000000e0: cca4 39be adca 43be 22a7 3abe 5883 0dbe
000000f0: 4cdc 613d 3dbe d7bd 32fe 4ebd 5b62 6bbe

arith.constant176 f4 [64]
-0.04788012 -0.14774673 -0.11791106 -0.21179402 0.09059673 -0.040938444 -0.16448316 -0.06920112
-0.013498127 -0.010873667 -0.06125284 -0.17655309 -0.0047892495 -0.13354422 0.007516234 -0.055414196
-0.031707324 -0.119069666 -0.11694675 -0.07975625 0.037562262 -0.11380046 -0.11510234 -0.100020796
0.06440457 -0.07562793 -0.11709017 -0.042819045 -0.07274489 0.010288104 -0.10457856 -0.09298709
-0.10524644 -0.22552678 -0.05980094 -0.046800766 -0.17492439 -0.08791789 -0.11653063 -0.13270316
-0.07073495 -0.043266207 -0.12211369 -0.066029854 -0.19362675 -0.07900343 -0.1427334 -0.28126967
-0.051394287 0.020039516 -0.14946295 -0.07212444 -0.17426059 -0.10677636 -0.074093595 -0.07576369
-0.18650033 0.055054743 -0.23976772 -0.06248059 -0.1775901 -0.19841865 -0.11450842 -0.043676864
00000000: f21d 44bd eb4a 17be 5b7b f1bd 88e0 58be
00000010: c78a b93d 12af 27bd 466e 28be 51b9 8dbd
00000020: 4027 5dbc 7727 32bc 42e4 7abd 55ca 34be
00000030: 23ef 9cbb d1bf 08be be4a f63b fff9 62bd
00000040: 8adf 01bd ccda f3bd c781 efbd 3f57 a3bd
00000050: e3da 193d 3710 e9bd c7ba ebbd b4d7 ccbd
00000060: 8be6 833d d1e2 9abd f9cc efbd 0663 2fbd
00000070: 46fb 94bd 708f 283c 492d d6bd 0470 bebd
00000080: 728b d7bd 7ef0 66be d5f1 74bd 29b2 3fbd
00000090: 611f 33be 4b0e b4bd 9ca7 eebd 56e3 07be
000000a0: 7cdd 90bd e837 31bd be16 fabd a93a 87bd
000000b0: 1746 46be 8dcc a1bd b428 12be 9402 90be
000000c0: d182 52bd e929 a43c d10c 19be fab5 93bd
000000d0: 5e71 32be 90ad dabd 62be 97bd fe29 9bbd
000000e0: f1f9 3ebe 1581 613d ab85 75be a6eb 7fbd
000000f0: 2eda 35be 422e 4bbe 6483 eabd 83e6 32bd

arith.constant177 f4 [32]
-0.1655457 -0.13026913 -0.25699133 -0.33718675 -0.15912981 -0.049626656 -0.27724922 -0.13380261
-0.09990455 -0.27244306 -0.30129975 -0.115353316 -0.15064292 -0.15577976 -0.3250081 -0.1931944
-0.10580216 -0.014722123 -0.21951066 -0.24214092 -0.34672472 -0.02629241 -0.061854206 -0.16508308
-0.22599049 -0.28439012 -0.11544725 -0.21760356 -0.21735856 -0.26946276 -0.07530909 -0.10711885
00000000: d084 29be 4565 05be 5e94 83be bea3 acbe
00000010: edf2 22be 5245 4bbd 9cf3 8dbe 8d03 09be
00000020: c29a ccbd a87d 8bbe f643 9abe 5c3e ecbd
00000030: 2342 1abe bb84 1fbe 7667 a6be c1d4 45be
00000040: ceae d8bd 0f35 71bc 67c7 60be caf3 77be
00000050: e785 b1be 2e63 d7bc d65a 7dbd 8a0b 29be
00000060: 0d6a 67be 959b 91be 9c6f ecbd 78d3 5ebe
00000070: 3e93 5ebe 06f7 89be a73b 9abd 2161 dbbd

arith.constant178 f4 [16]
0.049295597 -0.061492223 -0.04269281 0.019382497 -0.24123277 -0.08019227 -0.18267675 0.18192971
0.040679924 0.06765946 0.14347859 -0.14265992 -0.1323333 -0.012536249 -0.018053407 0.103214875
00000000: 2eea 493d 45df 7bbd a8de 2ebd 0bc8 9e3c
00000010: b905 77be d83b a4bd 9d0f 3bbe c84b 3a3e
00000020: fe9f 263d 0b91 8a3d 0dec 123e 7115 12be
00000030: 6182 07be d764 4dbc bde4 93bc 5262 d33d

tfl.pseudo_qconst i1 [64, 3, 3, 64]
3 -18 0 30 12 28 -37 8
29 -7 6 -31 -5 -24 8 2
8 37 39 -14 17 -8 6 -34
-60 2 -28 6 -20 -23 2 -2
-8 21 5 -28 -33 5 1 -20
3 50 2 -2 55 47 -10 -39
-9 18 0 9 5 -6 12 7
12 -10 9 3 5 -35 7 2
1 -33 -9 -43 -60 30 39 -12
-23 -19 -14 8 -11 -5 -43 25
-10 5 16 -1 1 21 -15 -33
-18 -19 -9 -32 7 -9 -5 -13
1 -11 18 21 5 -8 -7 -20
-15 10 -16 -18 -4 10 9 -12
20 -35 2 3 8 -21 20 10
-20 -10 26 -25 -24 -16 7 8
5 8 12 20 7 18 9 9
8 0 -10 19 11 -7 2 14
6 -28 1 0 -43 12 -4 28
6 28 -5 -9 -9 22 5 16
-12 28 -10 11 16 9 11 18
8 -4 -1 -7 0 -8 17 21
-30 -13 -1 -11 -11 -15 -2 -8
-29 -15 26 8 -10 -26 -2 9
-5 -40 9 -34 -61 -3 29 6
23 -30 -12 -63 -7 6 -41 -31
-6 -13 46 23 -49 1 3 -30
-35 13 -32 -2 -3 -5 15 -11
11 17 21 19 -52 -21 3 -23
54 32 14 20 29 -30 5 41
-51 18 -31 -69 -40 27 33 -4
-46 -14 -9 -3 7 -83 -1 -9
00000000: 03ee 001e 0c1c db08 1df9 06e1 fbe8 0802
00000010: 0825 27f2 11f8 06de c402 e406 ece9 02fe
00000020: f815 05e4 df05 01ec 0332 02fe 372f f6d9
00000030: f712 0009 05fa 0c07 0cf6 0903 05dd 0702
00000040: 01df f7d5 c41e 27f4 e9ed f208 f5fb d519
00000050: f605 10ff 0115 f1df eeed f7e0 07f7 fbf3
00000060: 01f5 1215 05f8 f9ec f10a f0ee fc0a 09f4
00000070: 14dd 0203 08eb 140a ecf6 1ae7 e8f0 0708
00000080: 0508 0c14 0712 0909 0800 f613 0bf9 020e
00000090: 06e4 0100 d50c fc1c 061c fbf7 f716 0510
000000a0: f41c f60b 1009 0b12 08fc fff9 00f8 1115
000000b0: e2f3 fff5 f5f1 fef8 e3f1 1a08 f6e6 fe09
000000c0: fbd8 09de c3fd 1d06 17e2 f4c1 f906 d7e1
000000d0: faf3 2e17 cf01 03e2 dd0d e0fe fdfb 0ff5
000000e0: 0b11 1513 cceb 03e9 3620 0e14 1de2 0529
000000f0: cd12 e1bb d81b 21fc d2f2 f7fd 07ad fff7

tfl.pseudo_qconst1 i1 [64, 3, 3, 32]
37 52 4 -53 37 -22 -17 49
19 1 1 -53 52 23 20 42
-68 -36 -74 -68 -32 -10 -27 -32
35 -56 -17 14 -28 -48 -45 3
-14 14 -57 34 -50 37 -36 -9
41 -9 7 -81 -65 -34 -66 -11
-7 -82 7 -51 -97 -54 45 39
43 -67 -79 -28 54 -43 -44 37
-9 -61 8 -8 -71 -9 -64 8
-43 35 -89 14 -47 -55 41 -39
28 -41 -6 -21 12 -15 -83 -42
-44 -65 14 -69 10 7 27 -62
31 -37 -57 20 -23 1 -13 -92
-84 -46 -42 3 16 -54 -47 -87
-36 5 -80 -47 6 9 -28 16
-57 -55 -56 8 -32 -4 -14 -19
-28 -52 -58 -11 -7 -41 -46 -68
-88 19 9 -33 -33 2 -40 -86
-63 -12 1 -90 -37 30 -69 -40
-13 -74 -31 -58 -51 4 -90 -44
35 26 -51 14 3 -45 -67 -65
-43 -71 -20 -8 19 -5 -60 -46
28 -127 -75 -93 -20 -50 -66 -32
-25 -36 7 21 -58 -25 1 6
-16 -10 -26 57 -26 -76 -76 -63
-81 -51 -18 25 -66 -46 -63 -38
16 -35 -1 -67 28 -36 -76 -48
7 -68 -104 30 -14 -15 -24 -56
-4 -17 -5 -17 -44 -75 -64 -10
-70 -18 -103 -76 -90 -26 -75 7
-29 -31 29 -45 -18 38 -7 -89
-5 12 -59 -4 -72 -69 -12 6
00000000: 2534 04cb 25ea ef31 1301 01cb 3417 142a
00000010: bcdc b6bc e0f6 e5e0 23c8 ef0e e4d0 d303
00000020: f20e c722 ce25 dcf7 29f7 07af bfde bef5
00000030: f9ae 07cd 9fca 2d27 2bbd b1e4 36d5 d425
00000040: f7c3 08f8 b9f7 c008 d523 a70e d1c9 29d9
00000050: 1cd7 faeb 0cf1 add6 d4bf 0ebb 0a07 1bc2
00000060: 1fdb c714 e901 f3a4 acd2 d603 10ca d1a9
00000070: dc05 b0d1 0609 e410 c7c9 c808 e0fc f2ed
00000080: e4cc c6f5 f9d7 d2bc a813 09df df02 d8aa
00000090: c1f4 01a6 db1e bbd8 f3b6 e1c6 cd04 a6d4
000000a0: 231a cd0e 03d3 bdbf d5b9 ecf8 13fb c4d2
000000b0: 1c81 b5a3 ecce bee0 e7dc 0715 c6e7 0106
000000c0: f0f6 e639 e6b4 b4c1 afcd ee19 bed2 c1da
000000d0: 10dd ffbd 1cdc b4d0 07bc 981e f2f1 e8c8
000000e0: fcef fbef d4b5 c0f6 baee 99b4 a6e6 b507
000000f0: e3e1 1dd3 ee26 f9a7 fb0c c5fc b8bb f406

tfl.pseudo_qconst2 i1 [32, 3, 3, 16]
34 -18 44 58 -33 -25 -20 37
38 91 11 56 -65 7 8 46
-11 8 -60 -14 -54 -39 -58 -32
-28 -12 4 -25 -54 -66 -8 -12
-43 4 -15 34 -9 22 12 -14
-20 -14 28 -18 -22 33 32 -15
-20 6 16 69 -53 1 7 127
12 -67 74 37 -3 46 -37 70
-7 -2 -51 51 -95 45 26 26
9 -8 49 4 31 -19 -71 24
14 -8 33 2 -81 3 3 -28
45 2 -35 -24 -13 -31 17 8
-22 -40 -53 5 -93 3 -46 37
9 -50 41 -38 -29 15 -4 -9
-8 13 -20 17 -9 -38 6 13
-20 13 124 30 -15 18 30 -10
-29 3 70 87 -10 31 -14 0
-23 -44 38 -10 -31 50 -2 -20
0 -50 47 -44 -5 24 1 -42
-14 -15 -3 -51 4 16 21 11
-9 -21 41 25 -10 -18 -50 -1
-33 0 15 -36 4 -3 44 8
-69 -52 -24 18 5 31 19 -23
-118 -113 -26 -50 -47 -77 -110 -55
35 14 -20 55 -25 -18 -24 32
24 27 -10 -9 -29 11 -2 16
62 41 27 60 -17 21 35 36
7 88 80 27 -3 -12 87 28
-67 -102 -55 -98 -14 -127 -59 -32
-80 -66 -72 -90 -58 -72 -71 -56
44 11 30 15 -38 5 10 6
-10 -39 -10 -24 0 -4 -20 -12
00000000: 22ee 2c3a dfe7 ec25 265b 0b38 bf07 082e
00000010: f508 c4f2 cad9 c6e0 e4f4 04e7 cabe f8f4
00000020: d504 f122 f716 0cf2 ecf2 1cee ea21 20f1
00000030: ec06 1045 cb01 077f 0cbd 4a25 fd2e db46
00000040: f9fe cd33 a12d 1a1a 09f8 3104 1fed b918
00000050: 0ef8 2102 af03 03e4 2d02 dde8 f3e1 1108
00000060: ead8 cb05 a303 d225 09ce 29da e30f fcf7
00000070: f80d ec11 f7da 060d ec0d 7c1e f112 1ef6
00000080: e303 4657 f61f f200 e9d4 26f6 e132 feec
00000090: 00ce 2fd4 fb18 01d6 f2f1 fdcd 0410 150b
000000a0: f7eb 2919 f6ee ceff df00 0fdc 04fd 2c08
000000b0: bbcc e812 051f 13e9 8a8f e6ce d1b3 92c9
000000c0: 230e ec37 e7ee e820 181b f6f7 e30b fe10
000000d0: 3e29 1b3c ef15 2324 0758 501b fdf4 571c
000000e0: bd9a c99e f281 c5e0 b0be b8a6 c6b8 b9c8
000000f0: 2c0b 1e0f da05 0a06 f6d9 f6e8 00fc ecf4

arith.constant205 f4 [128]
-0.252781 -0.39237568 -0.268241 -0.016155204 -0.29975778 -0.40397003 -0.72932446 -0.3026311
-0.3484864 -0.50437135 -0.5317497 -0.4087372 -0.62122285 -0.21670827 -0.41060984 -0.27993596
-0.5850269 -0.3847567 -0.50483304 -0.25728565 -0.4551341 -0.49514067 -0.3911168 -0.4074864
-0.3397888 -0.024420373 -0.30365962 -0.5767177 -0.4404265 -0.27173737 -0.71626514 -0.21633153
1.258284 0.91700923 0.8635858 1.2324715 1.1335555 0.7476153 0.44940016 1.1157569
1.1799493 0.99912286 0.4713842 1.119799 0.5385346 1.065655 0.9064819 1.1168171
0.5597371 0.90466696 0.87764347 1.0150766 0.7885647 0.89909726 0.98814803 0.9228989
1.1132026 1.2217746 1.0276301 1.0113028 0.70106924 1.2662883 0.43257493 1.0412315
0.13515829 -0.003180216 0.1832198 -0.18504052 0.031235656 -0.06146814 0.038713098 0.098754354
0.25703123 -0.070355475 0.008406728 0.035743933 -0.023056053 0.123226106 -0.030697903 -0.069888406
-0.019423323 -0.039467033 0.24475725 0.14745386 0.0069763334 0.15232185 0.053108852 -0.25617367
-0.1670441 0.19432355 0.05426759 0.24144629 0.15555602 -0.18500723 0.056454003 0.04627299
0.03787292 -0.13902804 -0.2507872 0.12194425 -0.14370131 -0.39541578 -0.7129959 -0.00966178
-0.21588829 -0.13935263 -0.58977795 -0.008249228 -0.6067667 -0.011876392 -0.30881718 -0.049481213
-0.566556 -0.24712552 -0.18127501 -0.26448655 -0.37413657 -0.20079215 -0.21516421 -0.30315614
-0.17576376 0.08134889 -0.2669072 -0.24541554 -0.41167396 -0.052196264 -0.7034351 -0.13025281
00000000: 836c 81be 77e5 c8be e256 89be eb57 84bc
00000010: da79 99be 29d5 cebe 02b5 3abf 77f2 9abe
00000020: cf6c b2be 7b1e 01bf c020 08bf 0146 d1be
00000030: 7608 1fbf c6e8 5dbe 743b d2be c453 8fbe
00000040: 53c4 15bf d5fe c4be bd3c 01bf f2ba 83be
00000050: 5607 e9be 1483 fdbe 7640 c8be 0fa2 d0be
00000060: ccf8 adbe 3c0d c8bc 4679 9bbe c5a3 13bf
00000070: 957f e1be 2921 8bbe 275d 37bf 0386 5dbe
00000080: 730f a13f 1ec1 6a3f f613 5d3f a0c1 9d3f
00000090: 5918 913f b763 3f3f c717 e63e 1fd1 8e3f
000000a0: 9408 973f 84c6 7f3f 4559 f13e 9355 8f3f
000000b0: 67dd 093f 6267 883f 330f 683f ddf3 8e3f
000000c0: ee4a 0f3f 4198 673f 3ead 603f 08ee 813f
000000d0: 60df 493f 3d2b 663f 45f7 7c3f 1a43 6c3f
000000e0: 6c7d 8e3f 1c63 9c3f 6289 833f 5f72 813f
000000f0: 4679 333f bc15 a23f 767a dd3e 1347 853f
00000100: ef66 0a3e 2c6b 50bb f99d 3b3e 437b 3dbe
00000110: ebe1 ff3c 04c6 7bbd a091 1e3d b93f ca3d
00000120: 9999 833e 8816 90bd 5fbc 093c 3b68 123d
00000130: 0ce0 bcbc f85d fc3d 2b7a fbbc a721 8fbd
00000140: a91d 9fbc 2fa8 21bd a5a1 7a3e 25fe 163e
00000150: ba99 e43b 42fa 1b3e ab88 593d 3229 83be
00000160: 9c0d 2bbe c1fc 463e b147 5e3d b23d 773e
00000170: 144a 1f3e 8972 3dbe 503c 673d bf88 3d3d
00000180: a320 1b3d 5e5d 0ebe 2e67 80be e8bd f93d
00000190: 7026 13be f073 cabe e686 36bf 714c 1ebc
000001a0: d211 5dbe 75b2 0ebe b0fb 16bf c527 07bc
000001b0: 1055 1bbf 3395 42bc 491d 9ebe d0ac 4abd
000001c0: d009 11bf 790e 7dbe 28a0 39be c86a 87be
000001d0: d48e bfbe 759c 4dbe 0254 5cbe 4837 9bbe
000001e0: 6afb 33be 3f9a a63d 0fa8 88be 364e 7bbe
000001f0: eec6 d2be c0cb 55bd 5314 34bf fe60 05be

tfl.pseudo_qconst3 i1 [128, 64]
4 82 5 40 -60 -66 -20 -87
21 46 13 96 43 -104 10 -52
-47 -51 4 0 -63 -31 54 -49
-17 -75 38 76 -49 35 -75 4
-126 25 20 32 -39 -80 -32 45
-4 -32 80 60 -38 -19 -45 7
124 -31 -24 -51 -127 -44 -25 -52
-31 -10 -69 -31 -14 4 -14 70
10 -84 21 -85 -24 43 -44 1
-92 -55 -13 -47 12 21 -2 -79
-76 -30 -75 47 -60 -65 -24 -21
-19 12 -4 51 -20 13 -31 -30
-17 -2 -85 -102 6 28 -32 -127
2 -23 -46 -43 -30 -47 28 21
3 -10 38 -31 -3 -33 -36 3
-84 -5 4 18 -88 -119 -61 -48
-76 -33 17 -97 -14 -71 -13 -87
-27 -122 -15 22 -66 -74 -67 -9
-13 7 -92 -10 13 -24 12 -51
-1 -89 -17 -19 13 28 -57 -7
-94 -36 -19 -4 -127 -28 -101 -16
-59 -37 59 -99 3 -36 -48 -13
-22 -57 42 -108 -45 -73 -88 -9
-89 -49 -58 -77 24 16 -16 9
-32 -14 15 -125 35 4 -6 -22
-17 -75 30 -51 19 -23 -30 44
-104 -1 -66 -39 12 -30 39 -6
-33 22 1 6 32 -2 -89 10
-47 -41 -28 -29 13 14 -58 -53
-10 -5 -35 -40 -127 -44 29 -55
-78 -33 4 -30 10 4 -1 22
-73 -17 15 39 -34 -92 -15 1
00000000: 0452 0528 c4be eca9 152e 0d60 2b98 0acc
00000010: d1cd 0400 c1e1 36cf efb5 264c cf23 b504
00000020: 8219 1420 d9b0 e02d fce0 503c daed d307
00000030: 7ce1 e8cd 81d4 e7cc e1f6 bbe1 f204 f246
00000040: 0aac 15ab e82b d401 a4c9 f3d1 0c15 feb1
00000050: b4e2 b52f c4bf e8eb ed0c fc33 ec0d e1e2
00000060: effe ab9a 061c e081 02e9 d2d5 e2d1 1c15
00000070: 03f6 26e1 fddf dc03 acfb 0412 a889 c3d0
00000080: b4df 119f f2b9 f3a9 e586 f116 beb6 bdf7
00000090: f307 a4f6 0de8 0ccd ffa7 efed 0d1c c7f9
000000a0: a2dc edfc 81e4 9bf0 c5db 3b9d 03dc d0f3
000000b0: eac7 2a94 d3b7 a8f7 a7cf c6b3 1810 f009
000000c0: e0f2 0f83 2304 faea efb5 1ecd 13e9 e22c
000000d0: 98ff bed9 0ce2 27fa df16 0106 20fe a70a
000000e0: d1d7 e4e3 0d0e c6cb f6fb ddd8 81d4 1dc9
000000f0: b2df 04e2 0a04 ff16 b7ef 0f27 dea4 f101

tfl.pseudo_qconst4 i1 [128, 32]
-21 25 35 47 -32 46 -20 42
55 -26 48 -82 -32 -76 32 -18
18 32 59 5 -17 127 -10 -108
-18 -63 -63 97 -126 59 -74 44
-13 -24 -66 80 -127 4 12 67
-50 -45 -35 -55 9 -5 -12 31
56 -27 -3 8 21 -6 6 73
-12 -110 -17 -30 -30 72 44 36
-37 -110 -30 125 37 90 59 -24
45 -70 -46 24 -65 -91 127 -30
-47 -51 -12 -83 -68 63 85 52
88 -113 -116 -60 -88 83 64 -46
127 -25 -5 42 -69 -42 -77 126
-24 38 -29 6 21 33 26 65
-1 -3 113 7 -19 18 -73 -40
-34 2 -25 120 90 18 -12 -6
-39 -20 -7 125 -35 125 -45 -73
-114 31 127 17 -4 -116 30 71
-121 -20 -53 -86 9 -49 -10 54
56 -124 -60 -85 -47 73 -19 4
-73 -62 31 74 10 -84 40 26
75 -76 -77 -22 76 -127 54 -44
-37 31 99 -1 -59 95 26 -51
-14 -59 -86 95 -1 19 -74 71
-34 -45 -66 127 -42 10 0 15
8 -54 23 -43 31 -78 42 2
-16 -37 36 -56 -13 50 36 -46
1 -49 -36 6 -56 84 13 41
-27 -15 -8 54 26 114 20 -13
-2 -14 96 -110 23 -27 9 40
2 -127 47 -90 1 86 -70 18
97 -41 5 -31 -99 34 -21 99
00000000: eb19 232f e02e ec2a 37e6 30ae e0b4 20ee
00000010: 1220 3b05 ef7f f694 eec1 c161 823b b62c
00000020: f3e8 be50 8104 0c43 ced3 ddc9 09fb f41f
00000030: 38e5 fd08 15fa 0649 f492 efe2 e248 2c24
00000040: db92 e27d 255a 3be8 2dba d218 bfa5 7fe2
00000050: d1cd f4ad bc3f 5534 588f 8cc4 a853 40d2
00000060: 7fe7 fb2a bbd6 b37e e826 e306 1521 1a41
00000070: fffd 7107 ed12 b7d8 de02 e778 5a12 f4fa
00000080: d9ec f97d dd7d d3b7 8e1f 7f11 fc8c 1e47
00000090: 87ec cbaa 09cf f636 3884 c4ab d149 ed04
000000a0: b7c2 1f4a 0aac 281a 4bb4 b3ea 4c81 36d4
000000b0: db1f 63ff c55f 1acd f2c5 aa5f ff13 b647
000000c0: ded3 be7f d60a 000f 08ca 17d5 1fb2 2a02
000000d0: f0db 24c8 f332 24d2 01cf dc06 c854 0d29
000000e0: e5f1 f836 1a72 14f3 fef2 6092 17e5 0928
000000f0: 0281 2fa6 0156 ba12 61d7 05e1 9d22 eb63
