inference_model/Arson/best_model.tflite (tflite, 260872 bytes, 13 tensors)

arith.constant11 f4 [2]
-0.053948373 0.053948388
00000000: f8f8 5cbd fcf8 5c3d

arith.constant12 f4 [2, 32]
-0.23567416 -0.36822504 0.01892677 0.16427739 -0.13466553 0.27914357 -0.23224066 0.099157
-0.39202538 0.3030997 -0.051064145 0.29071262 -0.24637021 -0.4718306 0.3034402 -0.1628232
-0.30588442 0.101476945 -0.10698653 -0.23387285 -0.37346852 -0.34649992 0.118833624 0.13503677
0.4574381 -0.40213525 -0.4280908 -0.39189148 -0.05756059 0.31086072 -0.40514192 -0.22379209
0.198862 0.41618297 -0.46448883 -0.37386063 -0.3663023 0.2080716 0.07631412 0.3813037
-0.2344193 -0.19760777 -0.26731706 -0.08734548 -0.3258742 0.40784094 -0.3311929 -0.20082742
-0.16708222 -0.37515938 0.18750775 -0.024600135 0.12881231 0.2471093 0.19157651 0.14550097
-0.14707883 0.2992413 0.12802906 0.018654456 -0.2822452 -0.3765412 -0.3358262 0.25289908
00000000: 9154 71be fe87 bcbe 500c 9b3c 5538 283e
00000010: c3e5 09be e8eb 8e3e 7fd0 6dbe d312 cb3d
00000020: 8db7 c8be e22f 9b3e a328 51bd 49d8 943e
00000030: 7948 7cbe c893 f1be 845c 9b3e 20bb 26be
00000040: e29c 9cbe 25d3 cf3d c11b dbbd 5d7c 6fbe
00000050: 4437 bfbe 7068 b1be 0b5f f33d 1447 0a3e
00000060: 5435 ea3e ace4 cdbe b82e dbbe 00a6 c8be
00000070: a7c4 6bbd 2329 9f3e c36e cfbe c129 65be
00000080: 7ba2 4b3e ef15 d53e 7bd1 edbe a96a bfbe
00000090: fa8b bbbe b910 553e 944a 9c3d 3d3a c33e
000000a0: 9d0b 70be b159 4abe c8dd 88be 30e2 b2bd
000000b0: fcd8 a6be 87d0 d03e 1e92 a9be b4a5 4dbe
000000c0: 9a17 2bbe e414 c0be 0802 403e 3986 c9bc
000000d0: 60e7 033e 380a 7d3e a22c 443e 35fe 143e
000000e0: d59b 16be 2836 993e 0d1a 033e 3bd1 983c
000000f0: 7182 90be 02ca c0be 69f1 abbe fd7b 813e

arith.constant54 f4 [16, 3, 3, 3]
0.1315681 -0.044616584 -0.18754773 -0.034623247 -0.274496 0.09776377 0.13724382 -0.26039147
-0.21693826 0.14579616 -0.01497398 0.046169918 0.03340533 -0.06752597 -0.13014325 0.00063780695
0.03139 -0.1142779 0.032058567 -0.1956973 -0.008581354 0.20899662 -0.21069477 0.033514503
0.022400951 -0.017665567 -0.17088528 -0.23245901 -0.15599279 0.0037508435 -0.17975882 -0.17648223
-0.078844085 0.28159663 0.29052097 0.23363435 -0.17967431 -0.06505176 -0.2331471 -0.29076937
-0.36997834 -0.3734556 -0.092585504 -0.011571491 0.17102362 0.013300265 0.20749179 0.08854963
0.019285213 0.14078633 0.22275285 0.07680099 0.069432735 -0.16487752 0.012875304 -0.08148315
0.06618663 0.17270736 0.16395113 -0.024788424 -0.136042 0.241235 0.13291797 -0.18167402
-0.32963806 -0.17197275 -0.17968033 -0.14810833 0.010888782 0.026597984 0.014716184 0.018996162
-0.22207005 -0.14921968 -0.17725182 -0.27215192 -0.07400155 0.10742889 -0.20642053 0.08785672
0.17467508 0.104779005 -0.059476998 -0.060965315 -0.16957965 0.11105244 -0.09196493 -0.15097155
0.01234529 0.0032538709 0.050021257 0.28674874 0.03184782 0.25455108 0.23980442 -0.057292156
-0.29047137 -0.3415823 -0.4219651 -0.036376774 0.26430145 0.09742958 0.09986094 0.13207264
-0.0122652175 -0.04131238 -0.027144136 -0.054491002 0.13225383 -0.14189446 0.03549146 0.031220768
-0.071691655 0.002353839 -0.021149462 0.1103981 0.13906272 -0.005398903 -0.044629373 -0.101074286
0.07697724 -0.06422547 0.11616261 0.14627023 0.0073916228 -0.12506188 -0.050858874 -0.054710776
-0.15176803 0.19468372 -0.032278165 0.15983148 0.10719034 0.12656727 0.095275894 0.081862666
-0.099367395 0.069422245 -0.25660416 0.045893837 0.19982308 -0.31642285 -0.18856105 -0.033154137
-0.08847339 -0.07839026 0.19694476 0.09869811 0.17835155 0.17835476 -0.23726296 0.22291745
0.11790545 -0.15898807 0.078452535 -0.010060701 0.09974119 0.029645298 0.24208379 -0.039986618
0.20062481 0.1043057 0.29580757 0.20756592 0.20187034 0.13150467 -0.011613498 -0.19227424
-0.14981534 -0.015339554 0.14403325 0.160186 0.06783198 0.06599103 0.15170142 0.024037603
-0.16871655 0.1551621 -0.061612688 -0.099096954 0.02130104 -0.16439448 0.13749535 0.033041384
-0.18477564 -0.12326296 -0.08185893 0.12999962 0.06788758 -0.011154573 0.16053769 0.033259723
0.34688637 -0.012929617 0.2970955 -0.08397288 -0.38232186 -0.30585966 -0.062705494 0.13539936
0.17289545 -0.024210528 -0.1434271 -0.055193197 -0.07325537 -0.05848265 -0.103413105 0.22575572
-0.08957205 0.0032039112 -0.087997094 -0.06963621 -0.1617272 0.089592665 -0.28985217 -0.12866893
-0.055722505 -0.029303184 -0.15355612 0.24041912 0.03491479 -0.13994002 0.1865026 -0.14898595
0.1308474 0.057861436 -0.093235515 -0.13580357 0.1252947 0.022549938 0.045569394 0.22680147
-0.20269065 -0.17260633 0.19164205 -0.031268977 -0.20967166 0.038221158 -0.15333511 -0.105828196
0.21204707 -0.1177286 -0.14317185 -0.10284196 0.062175263 -0.29833212 0.0029366082 -0.24271753
-0.19553097 -0.22586842 -0.060403172 -0.12389964 0.17894793 0.08918582 0.1696475 0.20061114
00000000: cab9 063e e1bf 36bd 830c 40be 1bd1 0dbd
00000010: bd8a 8cbe 5f38 c83d a589 0c3e 0852 85be
00000020: 1025 5ebe 974b 153e 6d55 75bc ab1c 3d3d
00000030: 07d4 083d 0e4b 8abd 4644 05be 8032 273a
00000040: cd92 003d 880a eabd d84f 033d df64 48be
00000050: cf98 0cbc 3603 563e 5fc0 57be 8146 093d
00000060: 3382 b73c 61b7 90bc 8dfc 2ebe bc09 6ebe
00000070: 93bc 1fbe b6d0 753b b212 38be c2b7 34be
00000080: 0279 a1bd 6f2d 903e 2abf 943e d83d 6f3e
00000090: 8bfc 37be db39 85bd 1dbe 6ebe b9df 94be
000000a0: cd6d bdbe 9335 bfbe 789d bdbd 5a96 3dbc
000000b0: d120 2f3e 5be9 593c ba78 543e 8259 b53d
000000c0: 06fc 9d3c 4b2a 103e 5319 643e d649 9d3d
000000d0: c032 8e3d a7d5 28be f0f2 523c a3e0 a6bd
000000e0: db8c 873d 33da 303e cee2 273e 1811 cbbc
000000f0: 984e 0bbe 4f06 773e a61b 083e c108 3abe
00000100: 52c6 a8be a019 30be 1ffe 37be b6a9 17be
00000110: dd66 323c 04e4 d93c 261c 713c d79d 9b3c
00000120: 5566 63be 0bcd 18be 8081 35be 7f57 8bbe
00000130: 208e 97bd ae03 dc3d e75f 53be 39ee b33d
00000140: 06de 323e 6096 d63d 279e 73bd c4b6 79bd
00000150: 4aa6 2dbe 766f e33d 1c58 bcbd 4998 1abe
00000160: e643 4a3c e53e 553b 17e3 4c3d bbd0 923e
00000170: dc72 023d 8554 823e 4a8f 753e 2eab 6abd
00000180: aab8 94be e0e3 aebe cf0b d8be d0ff 14bd
00000190: 8552 873e 2989 c73d e483 cc3d 0d3e 073e
000001a0: 0df4 48bc 2c37 29bd 615d debc f531 5fbd
000001b0: 8c6d 073e c84c 11be 7e5f 113d b2c2 ff3c
000001c0: 13d3 92bd de42 1a3b a341 adbc 6618 e23d
000001d0: 7566 0e3e 48e9 b0bb 4acd 36bd 0900 cfbd
000001e0: 3ea6 9d3d a588 83bd aae6 ed3d ddc7 153e
000001f0: 6d35 f23b 3910 00be 6551 50bd 6818 60bd
00000200: 1469 1bbe 2b5b 473e 1c36 04bd ddaa 233e
00000210: 9c86 db3d da9a 013e 0220 c33d 9da7 a73d
00000220: 2281 cbbd 402d 8e3d 9f61 83be 2dfb 3b3d
00000230: 6c9e 4c3e 2d02 a2be 2616 41be a2cc 07bd
00000240: 8931 b5bd 138b a0bd e3ab 493e 3c22 ca3d
00000250: caa1 363e a1a2 363e 10f5 72be 7944 643e
00000260: 6a78 f13d c5cd 22be b9ab a03d a3d5 24bc
00000270: 1c45 cc3d b2da f23c d0e4 773e 02c9 23bd
00000280: 9770 4d3e 3a9e d53d 1774 973e 298c 543e
00000290: 19b7 4e3e 29a9 063e 8b46 3ebc 8ae3 44be
000002a0: 3169 19be c152 7bbc 747d 133e cc07 243e
000002b0: 7eeb 8a3d 4e26 873d 9e57 1b3e 82ea c43c
000002c0: 08c4 2cbe d0e2 1e3e 965d 7cbd 58f3 cabd
000002d0: 857f ae3c 0757 28be 95cb 0c3e 6756 073d
000002e0: d335 3dbe 4a71 fcbd a8a5 a7bd 9f1e 053e
000002f0: a508 8b3d acc1 36bc fe63 243e 593b 083d
00000300: 179b b13e bfd6 53bc e71c 983e f9f9 abbd
00000310: b1bf c3be a399 9cbe bd6b 80bd 21a6 0a3e
00000320: 810b 313e 2855 c6bc 8ede 12be 4312 62bd
00000330: e906 96bd 818b 6fbd 40ca d3bd 822c 673e
00000340: 8d71 b7bd b6f8 513b d237 b4bd 6e9d 8ebd
00000350: d19b 25be 5c7c b73d 8167 94be cac1 03be
00000360: 483d 64bd 3b0d f0bc d13d 1dbe 6e30 763e
00000370: d002 0f3d 704c 0fbe 8afa 3e3e c68f 18be
00000380: dcfc 053e 1d00 6d3d 43f2 bebd 1710 0bbe
00000390: 414d 003e a6ba b83c f9a6 3a3d a53e 683e
000003a0: 238e 4fbe b7bf 30be d03d 443e e613 00bd
000003b0: 2bb4 56be ca8d 1c3d e103 1dbe 74bc d8bd
000003c0: de22 593e b11b f1bd a49b 12be ce9e d2bd
000003d0: 7dab 7e3d fdbe 98be 1c74 403b f28a 78be
000003e0: 4539 48be 0d4a 67be 5169 77bd 18bf fdbd
000003f0: 203e 373e 0ea7 b63d 13b8 2d3e 026d 4d3e

arith.constant175 f4 [128]
0.017120844 -0.08929854 0.03433331 -0.12385928 -0.093204275 -0.05888355 -0.04801803 -0.072150744
-0.064875685 0.035524763 0.005694428 -0.030119577 -0.087156415 0.0060853697 -0.07276964 -0.06501682
-0.19210984 -0.10123427 -0.25378823 -0.034518868 0.0018360829 -0.10439061 -0.14899784 -0.038604856
-0.026197 -0.0930212 -0.14138344 -0.03412101 -0.006725236 0.0035851838 -0.009718751 -0.0434154
-0.04576012 -0.050330333 -0.03708539 -0.07907534 -0.056904044 -0.015980732 0.05321694 -0.070325404
-0.021413656 -0.07108154 -0.0008203738 0.0005240822 0.024368554 -0.09352207 -0.052016016 -0.045267824
-0.049953643 -0.079415515 -0.155503 -0.18025918 -0.018846089 -0.026586823 -0.115255445 0.009489009
-0.033181064 -0.011260909 -0.1759051 0.055038944 -0.025305165 0.012711006 -0.20766573 0.009401686
-0.0038321875 -0.045118943 0.00033182642 0.006046224 0.031088792 0.04353601 -0.026028398 -0.013969878
-0.010875031 -0.15378447 -0.06383128 -0.024279298 -0.08844467 0.015562068 0.025334684 -0.0030235315
-0.032864332 -0.15960275 -0.034656923 0.033881884 -0.03180288 -0.12181306 0.0077253827 -0.036323033
0.02599449 -0.16273327 -0.0782485 -0.031677846 0.018673327 0.032225195 -0.056557644 -0.07100162
-0.113125846 -0.00823111 -0.09866052 -0.037814755 -0.108239956 -0.1185638 -0.058081366 -0.020717613
0.020022748 -0.0104485275 -0.023071365 -0.13831688 -0.07567322 -0.06755556 0.045893308 -0.014684962
-0.057201717 -0.018412257 0.036067326 -0.20596793 -0.0063260924 -0.031012958 -0.04684598 -0.033314206
-0.02036731 -0.099716246 -0.034527276 -0.28125715 -0.07213388 -0.08223924 -0.052832216 0.011722058
00000000: 0341 8c3c 27e2 b6bd 16a1 0c3d efa9 fdbd
00000010: e2e1 bebd e12f 71bd 8eae 44bd c5c3 93bd
00000020: 8bdd 84bd 6a82 113d 5398 ba3b 55bd f6bc
00000030: 107f b2bd c867 c73b 4008 95bd 8a27 85bd
00000040: 71b8 44be ea53 cfbd 88f0 81be a863 0dbd
00000050: b8a8 f03a beca d5bd e492 18be 2020 1ebd
00000060: 179b d6bc e681 bebd d2c6 10be 79c2 0bbd
00000070: 5e5f dcbb 67f5 6a3b 653b 1fbc 59d4 31bd
00000080: f76e 3bbd 2e27 4ebd dae6 17bd 40f2 a1bd
00000090: 3714 69bd 06ea 82bc 02fa 593d c406 90bd
000000a0: b16b afbc 3393 91bd 5b0e 57ba 9062 093a
000000b0: 90a0 c73c 8088 bfbd bf0e 55bd c16a 39bd
000000c0: 319c 4cbd 9aa4 a2bd 2e3c 1fbe dd95 38be
000000d0: 1d63 9abc 9ccc d9bc 0c0b ecbd ca77 1b3c
000000e0: dee8 07bd ad7f 38bc 7720 34be 8470 613d
000000f0: c74c cfbc d341 503c 53a6 54be 8709 1a3c
00000100: 7025 7bbb a4ce 38bd fdf8 ad39 671f c63b
00000110: ecad fe3c d152 323d 8239 d5bc eae1 64bc
00000120: 302d 32bc ad79 1dbe f9b9 82bd 61e5 c6bc
00000130: 7b22 b5bd 0bf8 7e3c af8a cf3c 7126 46bb
00000140: c09c 06bd e76e 23be 6bf4 0dbd bbc7 0a3d
00000150: bd43 02bd 2079 f9bd 3525 fd3b 76c7 14bd
00000160: 66f2 d43c 8da3 26be c040 a0bd a1c0 01bd
00000170: cef8 983c 91fe 033d fda8 67bd 4c69 91bd
00000180: 86ae e7bd c7db 06bc 870e cabd a5e3 1abd
00000190: e9ac ddbd 94d1 f2bd bae6 6dbd fcb7 a9bc
000001a0: bf06 a43c 4d30 2bbc 2900 bdbc f1a2 0dbe
000001b0: 90fa 9abd 925a 8abd 9ffa 3b3d 3299 70bc
000001c0: 594c 6abd 4dd5 96bc 55bb 133d 42e9 52be
000001d0: 1c4b cfbb e30e febc 92e1 3fbd 7a74 08bd
000001e0: 58d9 a6bc 0838 ccbd 796c 0dbd f000 90be
000001f0: edba 93bd 0c6d a8bd 9866 58bd e00d 403c

arith.constant176 f4 [64]
-0.12122938 -0.084235914 -0.05183724 -0.2251145 0.108898595 -0.042699836 -0.09225137 0.006621202
-0.07057686 -0.0717765 -0.011696894 -0.060088262 -0.2081999 -0.094774865 -0.046358638 0.026732111
-0.0055609317 -0.12471463 -0.108841285 -0.0585135 -0.090530545 -0.08084383 -0.024714986 -0.008075847
0.11438042 0.039159987 -0.046398968 -0.03852151 -0.07679735 -0.1016908 0.059156206 -0.010400291
-0.0523155 -0.0638785 -0.16243078 -0.024528459 -0.07703167 -0.030113593 -0.04640336 -0.025958052
-0.114949755 -0.14950185 -0.021913325 -0.053014934 -0.03060838 0.05038914 0.07862963 -0.17919648
-0.027765853 -0.0830258 0.025312351 -0.030118393 -0.1028727 -0.03861047 0.010994147 0.04505473
0.049941987 -0.046545424 0.011478606 -0.005075674 0.060241602 0.013229749 -0.055470966 -0.028435057
00000000: 1c47 f8bd e183 acbd 4953 54bd 6a84 66be
00000010: 3a06 df3d 06e6 2ebd 49ee bcbd abf6 d83b
00000020: 9a8a 90bd 8fff 92bd 54a4 3fbc 1c1f 76bd
00000030: 5b32 55be 5319 c2bd 8ee2 3dbd 4dfd da3c
00000040: 7a38 b6bb 626a ffbd 2ee8 debd daab 6fbd
00000050: 1468 b9bd 7391 a5bd 1577 cabc 8f50 04bc
00000060: 4840 ea3d 3966 203d d80c 3ebd bbc8 1dbd
00000070: ee47 9dbd 4443 d0bd c74d 723d fb65 2abc
00000080: c748 56bd bbd2 82bd 4154 26be e8ef c8bc
00000090: c8c2 9dbd c8b0 f6bc 7311 3ebd fba5 d4bc
000000a0: c76a ebbd 0317 19be 9383 b3bc 3026 59bd
000000b0: 6dbe fabc d864 4e3d 9208 a13d 487f 37be
000000c0: 3775 e3bc 6e09 aabd d95b cf3c d9ba f6bc
000000d0: ecae d2bd 0326 1ebd cb20 343c 4f8b 383d
000000e0: f88f 4c3d 6aa6 3ebd c310 3c3c d751 a6bb
000000f0: e6bf 763d 97c1 583c 8635 63bd a3f0 e8bc

arith.constant177 f4 [32]
-0.10546904 -0.1743215 -0.05365179 -0.09441205 -0.1511099 -0.07560177 -0.10767452 0.07909641
-0.18408339 -0.06480479 -0.08865775 -0.04100525 -0.050735917 -0.099326365 -0.04698771 -0.016333252
-0.055709027 -0.026852231 -0.058284976 -0.19260101 -0.015921697 -0.14162333 -0.12847133 -0.06438682
-0.0043985737 -0.0046851235 -0.08175012 -0.05774591 0.10144163 -0.19151531 -0.10951418 -0.25325632
00000000: 2700 d8bd 5681 32be fbc1 5bbd 1b5b c1bd
00000010: 8ebc 1abe 1ad5 9abd 7584 dcbd 4cfd a13d
00000020: 5b80 3cbe 60b8 84bd 3292 b5bd 1ff5 27bd
00000030: 77d0 4fbd 9f6b cbbd 2f76 40bd 50cd 85bc
00000040: 262f 64bd 36f9 dbbc 3abc 6ebd 3339 45be
00000050: 386e 82bc b505 11be fd8d 03be 3ddd 83bd
00000060: e921 90bb aa85 99bb 9b6c a7bd fa86 6cbd
00000070: a1c0 cf3d 971c 44be f848 e0bd d0aa 81be

arith.constant178 f4 [16]
-0.021327617 0.06918521 0.10368739 0.011482376 -0.26014957 -0.21840924 -0.27129185 -0.015138148
0.013288787 -0.14218013 0.0644683 -0.0688885 -0.29094473 -0.070389256 0.07426568 -0.054644212
00000000: 41b7 aebc fab0 8d3d 0e5a d43d 9320 3c3c
00000010: 5332 85be aca6 5fbe c4e6 8abe ff05 78bc
00000020: 36b9 593c ab97 11be f507 843d 6a15 8dbd
00000030: b5f6 94be 3e28 90bd 9b18 983d 9cd2 5fbd

tfl.pseudo_qconst i1 [128, 3, 3, 64]
3 5 -41 -14 -15 8 -17 -21
-40 -12 3 10 -44 -7 -17 -25
-36 -23 5 -18 -14 -19 -44 -26
-5 11 -25 -18 13 3 -21 3
2 -27 -14 -19 10 -25 -12 -15
-25 -13 2 -15 -29 -17 0 -14
-1 4 3 -32 8 -33 -9 -12
-10 -14 -21 -61 -20 -44 -7 10
-14 7 -68 -41 -41 -22 -11 -28
-56 -28 -31 -23 -52 -4 -11 -56
-48 -33 -9 -48 -23 -2 -40 -71
-47 -29 -44 -47 -7 1 -21 -27
-34 -80 -66 0 -1 -22 -17 -73
-13 -57 -18 5 -77 -29 -8 -58
1 -10 -15 -60 -25 -48 -51 -52
-55 4 -48 -66 -26 -46 -14 10
22 8 -44 -52 -44 19 -27 -42
1 -31 -11 -10 -93 -16 11 -37
-38 -60 -65 -68 39 -5 -62 -57
19 17 -24 -13 7 -29 -26 7
-22 -99 -34 -44 -13 4 -11 -44
-35 -99 -2 2 -80 -5 -15 -36
12 3 -12 -14 -45 -55 -35 -7
-12 -11 -51 -11 -20 -34 5 -10
-8 -11 -28 -53 -68 2 -24 -45
-18 22 -33 -8 2 -53 6 -24
-30 -13 -10 -127 39 -21 14 -14
-19 64 -25 -8 -14 12 -79 32
8 -7 -85 24 13 -14 -5 -20
-17 -21 -25 -5 3 43 31 5
2 1 34 -85 -4 -15 27 -29
-101 -30 -51 7 -44 -27 -6 -9
00000000: 0305 d7f2 f108 efeb d8f4 030a d4f9 efe7
00000010: dce9 05ee f2ed d4e6 fb0b e7ee 0d03 eb03
00000020: 02e5 f2ed 0ae7 f4f1 e7f3 02f1 e3ef 00f2
00000030: ff04 03e0 08df f7f4 f6f2 ebc3 ecd4 f90a
00000040: f207 bcd7 d7ea f5e4 c8e4 e1e9 ccfc f5c8
00000050: d0df f7d0 e9fe d8b9 d1e3 d4d1 f901 ebe5
00000060: deb0 be00 ffea efb7 f3c7 ee05 b3e3 f8c6
00000070: 01f6 f1c4 e7d0 cdcc c904 d0be e6d2 f20a
00000080: 1608 d4cc d413 e5d6 01e1 f5f6 a3f0 0bdb
00000090: dac4 bfbc 27fb c2c7 1311 e8f3 07e3 e607
000000a0: ea9d ded4 f304 f5d4 dd9d fe02 b0fb f1dc
000000b0: 0c03 f4f2 d3c9 ddf9 f4f5 cdf5 ecde 05f6
000000c0: f8f5 e4cb bc02 e8d3 ee16 dff8 02cb 06e8
000000d0: e2f3 f681 27eb 0ef2 ed40 e7f8 f20c b120
000000e0: 08f9 ab18 0df2 fbec efeb e7fb 032b 1f05
000000f0: 0201 22ab fcf1 1be3 9be2 cd07 d4e5 faf7

tfl.pseudo_qconst1 i1 [64, 3, 3, 32]
-3 1 25 -48 -4 -41 2 43
15 -11 18 -51 1 20 -3 -24
-62 10 -35 -42 -48 -40 -11 -57
17 -43 -29 19 -31 -31 -14 -5
-105 -19 -61 -22 -48 23 -36 -47
-5 -46 15 -66 -77 -35 -41 -44
-41 -74 10 -27 -98 -83 4 -10
-14 -62 -73 16 -24 -18 -31 8
-41 -68 10 -40 -75 -2 -43 -8
-20 3 -37 2 -61 -41 37 -67
8 -50 15 -10 -8 -33 -56 -55
-61 -46 16 -41 -19 -10 7 -72
-12 -42 6 -50 4 10 36 -60
-45 -42 -22 83 -3 -26 -44 -36
-8 34 -21 9 -35 -2 -14 -30
-24 17 -62 16 -23 64 -53 -32
-56 -48 -22 -64 3 -37 -2 -29
-37 11 31 17 -32 24 -16 -60
-45 28 25 -20 -23 4 -68 -96
-7 -36 -34 -17 -58 86 -69 -70
17 14 5 -50 14 -14 -67 -24
-22 -46 39 23 25 7 -54 35
-14 -31 -68 -44 8 14 -62 -66
-9 -14 7 23 -74 23 -7 -11
-82 10 46 -49 -11 -42 -57 -51
-79 -69 5 106 -92 -110 -51 -47
16 -57 -5 -46 -38 -20 -37 -84
39 -15 -59 11 -53 38 -15 -58
-76 -15 6 -43 -20 -15 -81 -26
-70 -36 -30 1 -97 -127 -85 -55
-15 -38 19 -28 -21 -39 6 -115
54 50 -50 15 -94 -22 -9 -22
00000000: fd01 19d0 fcd7 022b 0ff5 12cd 0114 fde8
00000010: c20a ddd6 d0d8 f5c7 11d5 e313 e1e1 f2fb
00000020: 97ed c3ea d017 dcd1 fbd2 0fbe b3dd d7d4
00000030: d7b6 0ae5 9ead 04f6 f2c2 b710 e8ee e108
00000040: d7bc 0ad8 b5fe d5f8 ec03 db02 c3d7 25bd
00000050: 08ce 0ff6 f8df c8c9 c3d2 10d7 edf6 07b8
00000060: f4d6 06ce 040a 24c4 d3d6 ea53 fde6 d4dc
00000070: f822 eb09 ddfe f2e2 e811 c210 e940 cbe0
00000080: c8d0 eac0 03db fee3 db0b 1f11 e018 f0c4
00000090: d31c 19ec e904 bca0 f9dc deef c656 bbba
000000a0: 110e 05ce 0ef2 bde8 ead2 2717 1907 ca23
000000b0: f2e1 bcd4 080e c2be f7f2 0717 b617 f9f5
000000c0: ae0a 2ecf f5d6 c7cd b1bb 056a a492 cdd1
000000d0: 10c7 fbd2 daec dbac 27f1 c50b cb26 f1c6
000000e0: b4f1 06d5 ecf1 afe6 badc e201 9f81 abc9
000000f0: f1da 13e4 ebd9 068d 3632 ce0f a2ea f7ea

tfl.pseudo_qconst2 i1 [32, 3, 3, 16]
-30 -91 34 -20 22 -24 12 -10
-4 -1 28 10 5 -17 -88 7
-26 29 21 -23 8 6 9 -37
-33 -5 127 14 36 3 4 7
-87 -18 4 16 -6 22 5 -12
-3 9 66 45 15 13 -31 -36
-62 8 -37 27 -46 -31 -7 56
-17 -44 11 33 -53 -28 23 14
-13 97 2 52 -43 0 -61 -32
-30 9 31 63 -33 53 56 15
-1 21 70 62 -16 -2 19 -36
-6 -5 73 19 2 53 32 -2
-82 -6 -13 -8 -42 33 -42 26
-72 8 -51 -16 -44 -13 27 5
-72 16 -26 61 -11 -17 -57 -18
-77 26 53 -6 -35 -8 32 4
-87 27 32 71 6 -18 5 66
-68 -16 42 -6 13 30 41 15
38 -49 -93 -82 -35 -6 -8 -101
17 3 -85 -37 6 -37 -102 -25
35 -33 -27 -8 -8 1 -20 -41
-48 10 -8 6 4 -15 31 -9
34 -43 -31 -56 23 81 -5 -42
-25 26 -22 6 15 -16 -65 -8
15 -7 -21 18 -24 -26 -51 -30
1 -70 5 32 -34 49 -92 3
-5 4 -43 42 21 9 -36 -9
-76 -23 -43 60 -34 0 59 14
13 23 -66 -24 -46 -9 -13 41
-27 -10 -101 -19 -65 -4 10 12
37 -11 11 -21 11 90 50 -39
55 -26 -58 77 44 108 14 -14
00000000: e2a5 22ec 16e8 0cf6 fcff 1c0a 05ef a807
00000010: e61d 15e9 0806 09db dffb 7f0e 2403 0407
00000020: a9ee 0410 fa16 05f4 fd09 422d 0f0d e1dc
00000030: c208 db1b d2e1 f938 efd4 0b21 cbe4 170e
00000040: f361 0234 d500 c3e0 e209 1f3f df35 380f
00000050: ff15 463e f0fe 13dc fafb 4913 0235 20fe
00000060: aefa f3f8 d621 d61a b808 cdf0 d4f3 1b05
00000070: b810 e63d f5ef c7ee b31a 35fa ddf8 2004
00000080: a91b 2047 06ee 0542 bcf0 2afa 0d1e 290f
00000090: 26cf a3ae ddfa f89b 1103 abdb 06db 9ae7
000000a0: 23df e5f8 f801 ecd7 d00a f806 04f1 1ff7
000000b0: 22d5 e1c8 1751 fbd6 e71a ea06 0ff0 bff8
000000c0: 0ff9 eb12 e8e6 cde2 01ba 0520 de31 a403
000000d0: fb04 d52a 1509 dcf7 b4e9 d53c de00 3b0e
000000e0: 0d17 bee8 d2f7 f329 e5f6 9bed bffc 0a0c
000000f0: 25f5 0beb 0b5a 32d9 37e6 c64d 2c6c 0ef2

arith.constant225 f4 [128]
-0.09529599 -0.12653771 -0.14441025 -0.15470712 -0.12846956 -0.25840628 -0.17975895 -0.12780908
-0.10459732 -0.13542882 -0.22289823 -0.1561051 -0.14736569 -0.12534563 -0.06273595 -0.25140646
-0.19246769 -0.1518024 -0.287773 -0.17050157 -0.12724034 -0.08274993 -0.1779958 -0.24742424
-0.15458594 -0.12976976 -0.22964343 -0.1843785 -0.18801053 -0.13466495 -0.21590644 -0.24548532
0.92938614 1.1521717 0.9310518 1.1663486 0.93649 0.7758337 0.89674354 0.9648526
0.9519158 0.95719707 0.844862 0.9584539 0.96620184 1.0865941 1.2140867 0.77917403
0.8646303 0.92354363 0.8063672 1.0570002 1.0204664 1.0624975 0.90623575 0.8027316
0.95365536 1.1061486 0.9769153 0.9609243 0.8877132 1.1131519 0.8086289 0.8301351
-0.04302006 0.010910603 0.053791787 0.023692766 0.0426221 -0.03378771 -0.05788256 -0.043050606
0.038654696 -0.01383738 -0.052253608 0.013385818 0.0047759716 0.0055703064 0.0044755694 -0.012093916
-0.016956804 0.04706492 -0.031728294 -0.054624595 -0.03671278 0.0053019286 0.04733692 -0.02018773
0.050633304 -0.025609164 -0.011973735 -0.0117010195 0.029614015 0.017197073 0.0801393 -0.063589014
-0.062949546 -0.04524381 -0.064849444 -0.02390453 -0.09355814 -0.24591346 -0.14861211 -0.08630855
-0.15370987 -0.12429118 -0.1989763 -0.14515099 -0.16006751 0.00032704842 0.06086811 -0.24660306
-0.20859991 -0.086350925 -0.24584694 -0.1361291 -0.07873129 -0.018095369 -0.18740349 -0.24265441
-0.066457696 -0.028290909 -0.08639164 -0.097652085 -0.13270228 -0.045883548 -0.21976289 -0.13162193
00000000: 8b2a c3bd 1a93 01be 48e0 13be 8b6b 1ebe
00000010: 868d 03be d44d 84be bb12 38be 62e0 02be
00000020: 1f37 d6bd daad 0abe 6f3f 64be 04da 1fbe
00000030: 08e7 16be 9b5a 00be b57b 80bd 59b8 80be
00000040: 4016 45be 1772 1bbe fc56 93be f797 2ebe
00000050: 4b4b 02be cc78 a9bd 8844 36be c85c 7dbe
00000060: c74b 1ebe 5de2 04be a627 6bbe b8cd 3cbe
00000070: d585 40be 9ce5 09be 9416 5dbe 8160 7bbe
00000080: 40ec 6d3f 5d7a 933f 6959 6e3f e94a 953f
00000090: cfbd 6f3f 0a9d 463f fc90 653f 9400 773f
000000a0: c1b0 733f de0a 753f e048 583f 3c5d 753f
000000b0: 0159 773f 8415 8b3f 3167 9b3f f377 473f
000000c0: 6958 5d3f 5b6d 6c3f 156e 4e3f c84b 873f
000000d0: a59e 823f ebff 873f 11ff 673f d17f 4d3f
000000e0: c222 743f 4796 8d3f 1f17 7a3f 23ff 753f
000000f0: 2c41 633f c37b 8e3f 4e02 4f3f bc83 543f
00000100: cd35 30bd 63c2 323c c754 5c3d 5517 c23c
00000110: 8394 2e3d fb64 0abd 4316 6dbd d555 30bd
00000120: 6354 1e3d 2eb6 62bc e107 56bd 3150 5b3c
00000130: c17f 9c3b 1e87 b63b cca7 923b 8f25 46bc
00000140: ffe8 8abc 25c7 403d 87f5 01bd 0abe 5fbd
00000150: 2460 16bd cdbb ad3b 5ce4 413d bd60 a5bc
00000160: de64 4f3d 4fca d1bc 7c2d 44bc a2b5 3fbc
00000170: 1799 f23c e0e0 8c3c 1320 a43d f53a 82bd
00000180: b1eb 80bd 9351 39bd c9cf 84bd 6fd3 c3bc
00000190: 699b bfbd bdd0 7bbe c62d 18be 89c2 b0bd
000001a0: 1f66 1dbe 608c febd 71c0 4bbe 76a2 14be
000001b0: bde8 23be b277 ab39 d750 793d 8385 7cbe
000001c0: 379b 55be c1d8 b0bd 4dbf 7bbe 6d65 0bbe
000001d0: df3d a1bd bd3c 94bc b3e6 3fbe 667a 78be
000001e0: f91a 88bd 56c2 e7bc 1aee b0bd d1fd c7bd
000001f0: 1be3 07be 63f0 3bbd 8609 61be e6c7 06be

tfl.pseudo_qconst3 i1 [128, 128]
-12 40 10 65 3 -1 23 10
14 -27 5 17 14 -64 -4 -19
-25 -9 13 55 30 -59 3 -64
-76 -10 61 -4 -38 69 -82 42
-33 25 73 18 -50 94 -46 41
-32 -20 63 25 -18 21 -69 -36
59 -41 55 -7 -41 -10 -28 -34
6 -95 -24 -58 -9 53 19 37
95 88 -8 87 35 3 -1 47
-35 6 109 -18 -9 96 -14 -21
-13 5 13 -40 -15 -24 -54 61
-24 84 -51 33 -56 -38 14 6
4 28 -64 40 60 12 59 42
11 5 4 -31 -36 -127 -45 11
8 76 -25 45 -64 -21 -3 -30
-35 -5 17 -17 30 55 1 -14
32 -43 41 -7 11 36 -41 66
-47 -83 -75 5 18 24 -10 -13
-91 18 -19 75 -80 -9 -58 49
-112 -21 -76 65 -89 4 8 -22
37 -108 -127 38 5 13 -8 -41
41 -1 60 -28 -32 45 45 -29
-43 -48 32 -68 -27 -88 8 28
-72 -59 63 -8 -48 -125 24 -16
-4 -4 11 47 -21 -33 -73 -21
-57 47 -7 -39 80 -32 -107 -54
-14 -33 73 24 -59 93 18 6
-15 -38 -2 -25 -45 19 57 -86
25 -28 -83 117 14 -90 33 -82
-40 -78 26 21 -28 -29 -69 -37
63 27 -8 39 -70 31 35 -27
-7 51 81 3 -19 -29 -57 -46
00000000: f428 0a41 03ff 170a 0ee5 0511 0ec0 fced
00000010: e7f7 0d37 1ec5 03c0 b4f6 3dfc da45 ae2a
00000020: df19 4912 ce5e d229 e0ec 3f19 ee15 bbdc
00000030: 3bd7 37f9 d7f6 e4de 06a1 e8c6 f735 1325
00000040: 5f58 f857 2303 ff2f dd06 6dee f760 f2eb
00000050: f305 0dd8 f1e8 ca3d e854 cd21 c8da 0e06
00000060: 041c c028 3c0c 3b2a 0b05 04e1 dc81 d30b
00000070: 084c e72d c0eb fde2 ddfb 11ef 1e37 01f2
00000080: 20d5 29f9 0b24 d742 d1ad b505 1218 f6f3
00000090: a512 ed4b b0f7 c631 90eb b441 a704 08ea
000000a0: 2594 8126 050d f8d7 29ff 3ce4 e02d 2de3
000000b0: d5d0 20bc e5a8 081c b8c5 3ff8 d083 18f0
000000c0: fcfc 0b2f ebdf b7eb c72f f9d9 50e0 95ca
000000d0: f2df 4918 c55d 1206 f1da fee7 d313 39aa
000000e0: 19e4 ad75 0ea6 21ae d8b2 1a15 e4e3 bbdb
000000f0: 3f1b f827 ba1f 23e5 f933 5103 ede3 c7d2

tfl.pseudo_qconst4 i1 [128, 32]
79 30 -76 -41 -39 127 4 14
-39 49 -62 1 16 -19 107 -80
64 4 86 29 -11 28 -92 9
-76 -32 -33 -2 -106 -33 -76 63
6 -57 -73 31 -127 -24 58 45
-40 19 12 -7 -45 25 56 -36
11 -12 -14 67 24 39 1 39
-86 -41 23 0 -79 0 20 -40
90 -30 -64 61 19 45 -27 -36
30 -16 -54 -21 30 -19 127 -51
23 9 54 -22 -49 12 -54 76
11 -56 -6 -8 -25 48 -55 19
63 -23 -79 52 -73 53 56 65
-18 89 -22 4 16 44 16 -88
83 -80 111 88 16 25 -127 36
-98 50 -5 59 -19 -82 -111 48
0 -28 106 53 24 127 -43 -75
-9 -33 37 80 24 -98 73 112
-99 -59 40 5 14 10 -13 34
-89 -10 -27 20 -62 9 15 -99
62 53 5 -53 90 -7 -20 -14
127 -63 -116 -81 47 -38 43 12
-69 36 3 -16 -124 36 -90 23
-124 -7 58 -6 36 14 -34 17
-30 47 35 59 -53 21 2 -68
-17 51 31 21 44 46 96 -14
47 -40 51 67 43 8 -11 -82
-86 77 -51 -12 -127 1 59 -116
-127 -62 125 -8 15 -19 16 68
12 84 123 20 17 -2 15 -6
-14 -85 32 0 -4 68 -45 27
76 76 -20 -8 -95 -87 18 -63
00000000: 4f1e b4d7 d97f 040e d931 c201 10ed 6bb0
00000010: 4004 561d f51c a409 b4e0 dffe 96df b43f
00000020: 06c7 b71f 81e8 3a2d d813 0cf9 d319 38dc
00000030: 0bf4 f243 1827 0127 aad7 1700 b100 14d8
00000040: 5ae2 c03d 132d e5dc 1ef0 caeb 1eed 7fcd
00000050: 1709 36ea cf0c ca4c 0bc8 faf8 e730 c913
00000060: 3fe9 b134 b735 3841 ee59 ea04 102c 10a8
00000070: 53b0 6f58 1019 8124 9e32 fb3b edae 9130
00000080: 00e4 6a35 187f d5b5 f7df 2550 189e 4970
00000090: 9dc5 2805 0e0a f322 a7f6 e514 c209 0f9d
000000a0: 3e35 05cb 5af9 ecf2 7fc1 8caf 2fda 2b0c
000000b0: bb24 03f0 8424 a617 84f9 3afa 240e de11
000000c0: e22f 233b cb15 02bc ef33 1f15 2c2e 60f2
000000d0: 2fd8 3343 2b08 f5ae aa4d cdf4 8101 3b8c
000000e0: 81c2 7df8 0fed 1044 0c54 7b14 11fe 0ffa
000000f0: f2ab 2000 fc44 d31b 4c4c ecf8 a1a9 12c1
